                                                                                      DogvsCat

###### VGG16 ######

training (pretrain with imagenet):

    Accuracy : 0.95985
    Average prediction time 0.27738998806665816 63
    inference time: 0:00:19.152431

    Architecture:
    ModifiedVGG16Model(
  (features): Sequential(
    (0): Conv2d(3, 64, kernel_size=(3, 3), stride=(1, 1), padding=(1, 1))
    (1): ReLU(inplace=True)
    (2): Conv2d(64, 64, kernel_size=(3, 3), stride=(1, 1), padding=(1, 1))
    (3): ReLU(inplace=True)
    (4): MaxPool2d(kernel_size=2, stride=2, padding=0, dilation=1, ceil_mode=False)
    (5): Conv2d(64, 128, kernel_size=(3, 3), stride=(1, 1), padding=(1, 1))
    (6): ReLU(inplace=True)
    (7): Conv2d(128, 128, kernel_size=(3, 3), stride=(1, 1), padding=(1, 1))
    (8): ReLU(inplace=True)
    (9): MaxPool2d(kernel_size=2, stride=2, padding=0, dilation=1, ceil_mode=False)
    (10): Conv2d(128, 256, kernel_size=(3, 3), stride=(1, 1), padding=(1, 1))
    (11): ReLU(inplace=True)
    (12): Conv2d(256, 256, kernel_size=(3, 3), stride=(1, 1), padding=(1, 1))
    (13): ReLU(inplace=True)
    (14): Conv2d(256, 256, kernel_size=(3, 3), stride=(1, 1), padding=(1, 1))
    (15): ReLU(inplace=True)
    (16): MaxPool2d(kernel_size=2, stride=2, padding=0, dilation=1, ceil_mode=False)
    (17): Conv2d(256, 512, kernel_size=(3, 3), stride=(1, 1), padding=(1, 1))
    (18): ReLU(inplace=True)
    (19): Conv2d(512, 512, kernel_size=(3, 3), stride=(1, 1), padding=(1, 1))
    (20): ReLU(inplace=True)
    (21): Conv2d(512, 512, kernel_size=(3, 3), stride=(1, 1), padding=(1, 1))
    (22): ReLU(inplace=True)
    (23): MaxPool2d(kernel_size=2, stride=2, padding=0, dilation=1, ceil_mode=False)
    (24): Conv2d(512, 512, kernel_size=(3, 3), stride=(1, 1), padding=(1, 1))
    (25): ReLU(inplace=True)
    (26): Conv2d(512, 512, kernel_size=(3, 3), stride=(1, 1), padding=(1, 1))
    (27): ReLU(inplace=True)
    (28): Conv2d(512, 512, kernel_size=(3, 3), stride=(1, 1), padding=(1, 1))
    (29): ReLU(inplace=True)
    (30): MaxPool2d(kernel_size=2, stride=2, padding=0, dilation=1, ceil_mode=False)
  )
  (avgpool): AdaptiveAvgPool2d(output_size=(7, 7))
  (classifier): Sequential(
    (0): Dropout(p=0.5, inplace=False)
    (1): Linear(in_features=25088, out_features=4096, bias=True)
    (2): ReLU(inplace=True)
    (3): Dropout(p=0.5, inplace=False)
    (4): Linear(in_features=4096, out_features=4096, bias=True)
    (5): ReLU(inplace=True)
    (6): Linear(in_features=4096, out_features=2, bias=True)
  )
)
    Parameters:
        module name  input shape output shape       params memory(MB)              MAdd             Flops   MemRead(B)  MemWrite(B) duration[%]    MemR+W(B)
0        features.0    3 224 224   64 224 224       1792.0      12.25     173,408,256.0      89,915,392.0     609280.0   12845056.0       4.87%   13454336.0
1        features.1   64 224 224   64 224 224          0.0      12.25       3,211,264.0       3,211,264.0   12845056.0   12845056.0       0.21%   25690112.0
…
        Accuracy : 0.889375
        Accuracy : 0.899375
        Accuracy : 0.908505
        Accuracy : 0.909005
        Accuracy : 0.921875
        Accuracy : 0.931875
        Accuracy : 0.936875
        Accuracy : 0.940875
        Accuracy : 0.944625
        Accuracy : 0.95075
        Accuracy : 0.9375
        Accuracy : 0.956375

    Ending:
        Accuracy : 0.952875
        Average prediction time 0.19401696371653723 63
        inference time: 0:00:13.847323

    Architecture (decomposed):
    (module): ModifiedVGG16Model(
        (features): Sequential(
        (0): Sequential(
            (0): Conv2d(3, 2, kernel_size=(1, 1), stride=(1, 1), bias=False)
            (1): Conv2d(2, 14, kernel_size=(3, 3), stride=(1, 1), padding=(1, 1), bias=False)
            (2): Conv2d(14, 64, kernel_size=(1, 1), stride=(1, 1))
        )
        (1): ReLU(inplace=True)
        (2): Sequential(
            (0): Conv2d(64, 29, kernel_size=(1, 1), stride=(1, 1), bias=False)
            (1): Conv2d(29, 26, kernel_size=(3, 3), stride=(1, 1), padding=(1, 1), bias=False)
            (2): Conv2d(26, 64, kernel_size=(1, 1), stride=(1, 1))
        )
        (3): ReLU(inplace=True)
        (4): MaxPool2d(kernel_size=2, stride=2, padding=0, dilation=1, ceil_mode=False)
        (5): Sequential(
            (0): Conv2d(64, 32, kernel_size=(1, 1), stride=(1, 1), bias=False)
            (1): Conv2d(32, 39, kernel_size=(3, 3), stride=(1, 1), padding=(1, 1), bias=False)
            (2): Conv2d(39, 128, kernel_size=(1, 1), stride=(1, 1))
        )
        (6): ReLU(inplace=True)
        (7): Sequential(
            (0): Conv2d(128, 43, kernel_size=(1, 1), stride=(1, 1), bias=False)
            (1): Conv2d(43, 42, kernel_size=(3, 3), stride=(1, 1), padding=(1, 1), bias=False)
            (2): Conv2d(42, 128, kernel_size=(1, 1), stride=(1, 1))
        )
        (8): ReLU(inplace=True)
        (9): MaxPool2d(kernel_size=2, stride=2, padding=0, dilation=1, ceil_mode=False)
        (10): Sequential(
            (0): Conv2d(128, 59, kernel_size=(1, 1), stride=(1, 1), bias=False)
            (1): Conv2d(59, 71, kernel_size=(3, 3), stride=(1, 1), padding=(1, 1), bias=False)
            (2): Conv2d(71, 256, kernel_size=(1, 1), stride=(1, 1))
        )
        (11): ReLU(inplace=True)
        (12): Sequential(
            (0): Conv2d(256, 81, kernel_size=(1, 1), stride=(1, 1), bias=False)
            (1): Conv2d(81, 78, kernel_size=(3, 3), stride=(1, 1), padding=(1, 1), bias=False)
            (2): Conv2d(78, 256, kernel_size=(1, 1), stride=(1, 1))
        )
        (13): ReLU(inplace=True)
        (14): Sequential(
            (0): Conv2d(256, 73, kernel_size=(1, 1), stride=(1, 1), bias=False)
            (1): Conv2d(73, 70, kernel_size=(3, 3), stride=(1, 1), padding=(1, 1), bias=False)
            (2): Conv2d(70, 256, kernel_size=(1, 1), stride=(1, 1))
        )
        (15): ReLU(inplace=True)
        (16): MaxPool2d(kernel_size=2, stride=2, padding=0, dilation=1, ceil_mode=False)
        (17): Sequential(
            (0): Conv2d(256, 110, kernel_size=(1, 1), stride=(1, 1), bias=False)
            (1): Conv2d(110, 131, kernel_size=(3, 3), stride=(1, 1), padding=(1, 1), bias=False)
            (2): Conv2d(131, 512, kernel_size=(1, 1), stride=(1, 1))
        )
        (18): ReLU(inplace=True)
        (19): Sequential(
            (0): Conv2d(512, 148, kernel_size=(1, 1), stride=(1, 1), bias=False)
            (1): Conv2d(148, 138, kernel_size=(3, 3), stride=(1, 1), padding=(1, 1), bias=False)
            (2): Conv2d(138, 512, kernel_size=(1, 1), stride=(1, 1))
        )
        (20): ReLU(inplace=True)
        (21): Sequential(
            (0): Conv2d(512, 132, kernel_size=(1, 1), stride=(1, 1), bias=False)
            (1): Conv2d(132, 121, kernel_size=(3, 3), stride=(1, 1), padding=(1, 1), bias=False)
            (2): Conv2d(121, 512, kernel_size=(1, 1), stride=(1, 1))
        )
        (22): ReLU(inplace=True)
        (23): MaxPool2d(kernel_size=2, stride=2, padding=0, dilation=1, ceil_mode=False)
        (24): Sequential(
            (0): Conv2d(512, 157, kernel_size=(1, 1), stride=(1, 1), bias=False)
            (1): Conv2d(157, 144, kernel_size=(3, 3), stride=(1, 1), padding=(1, 1), bias=False)
            (2): Conv2d(144, 512, kernel_size=(1, 1), stride=(1, 1))
        )
        (25): ReLU(inplace=True)
        (26): Sequential(
            (0): Conv2d(512, 149, kernel_size=(1, 1), stride=(1, 1), bias=False)
            (1): Conv2d(149, 147, kernel_size=(3, 3), stride=(1, 1), padding=(1, 1), bias=False)
            (2): Conv2d(147, 512, kernel_size=(1, 1), stride=(1, 1))
        )
        (27): ReLU(inplace=True)
        (28): Sequential(
            (0): Conv2d(512, 155, kernel_size=(1, 1), stride=(1, 1), bias=False)
            (1): Conv2d(155, 152, kernel_size=(3, 3), stride=(1, 1), padding=(1, 1), bias=False)
            (2): Conv2d(152, 512, kernel_size=(1, 1), stride=(1, 1))
        )
        (29): ReLU(inplace=True)
        (30): MaxPool2d(kernel_size=2, stride=2, padding=0, dilation=1, ceil_mode=False)
        )
        (avgpool): AdaptiveAvgPool2d(output_size=(7, 7))
        (classifier): Sequential(
        (0): Dropout(p=0.5, inplace=False)
        (1): Linear(in_features=25088, out_features=4096, bias=True)
        (2): ReLU(inplace=True)
        (3): Dropout(p=0.5, inplace=False)
        (4): Linear(in_features=4096, out_features=4096, bias=True)
        (5): ReLU(inplace=True)
        (6): Linear(in_features=4096, out_features=2, bias=True)
        )
    )
    )

    Parameters:
         module name  input shape output shape       params memory(MB)             MAdd            Flops   MemRead(B)  MemWrite(B) duration[%]    MemR+W(B)
0       features.0.0    3 224 224    2 224 224          6.0       0.38        501,760.0        301,056.0     602136.0     401408.0       0.45%    1003544.0
1       features.0.1    2 224 224   14 224 224        252.0       2.68     24,586,240.0     12,644,352.0     402416.0    2809856.0       1.67%    3212272.0
…
===========================================================================================================================================================
Total params: 121,762,674
-----------------------------------------------------------------------------------------------------------------------------------------------------------
Total memory: 138.70MB
Total MAdd: 5.79GMAdd
Total Flops: 2.92GFlops
Total MemR+W: 742.04MB



###### AlexNet ######

Training (pretrain with imagenet):
    
    Accuracy : 0.90225
    CPU prediction time 0.01443942009456574 63
    inference time: 0:00:13.087910

    Architecture:
        AlexNetModel(
    (features): Sequential(
        (0): Conv2d(3, 64, kernel_size=(11, 11), stride=(4, 4), padding=(2, 2))
        (1): ReLU(inplace=True)
        (2): MaxPool2d(kernel_size=3, stride=2, padding=0, dilation=1, ceil_mode=False)
        (3): Conv2d(64, 192, kernel_size=(5, 5), stride=(1, 1), padding=(2, 2))
        (4): ReLU(inplace=True)
        (5): MaxPool2d(kernel_size=3, stride=2, padding=0, dilation=1, ceil_mode=False)
        (6): Conv2d(192, 384, kernel_size=(3, 3), stride=(1, 1), padding=(1, 1))
        (7): ReLU(inplace=True)
        (8): Conv2d(384, 256, kernel_size=(3, 3), stride=(1, 1), padding=(1, 1))
        (9): ReLU(inplace=True)
        (10): Conv2d(256, 256, kernel_size=(3, 3), stride=(1, 1), padding=(1, 1))
        (11): ReLU(inplace=True)
        (12): MaxPool2d(kernel_size=3, stride=2, padding=0, dilation=1, ceil_mode=False)
    )
    (avgpool): AdaptiveAvgPool2d(output_size=(6, 6))
    (classifier): Sequential(
        (0): Dropout(p=0.5, inplace=False)
        (1): Linear(in_features=9216, out_features=4096, bias=True)
        (2): ReLU(inplace=True)
        (3): Dropout(p=0.5, inplace=False)
        (4): Linear(in_features=4096, out_features=4096, bias=True)
        (5): ReLU(inplace=True)
        (6): Linear(in_features=4096, out_features=2, bias=True)
    )
    )

    Parameters:
        module name  input shape output shape      params memory(MB)             MAdd          Flops   MemRead(B)  MemWrite(B) duration[%]    MemR+W(B)
0        features.0    3 224 224   64  55  55     23296.0       0.74    140,553,600.0   70,470,400.0     695296.0     774400.0      20.00%    1469696.0
1        features.1   64  55  55   64  55  55         0.0       0.74        193,600.0      193,600.0     774400.0     774400.0       0.43%    1548800.0
…
        Accuracy : 0.866
        Accuracy : 0.8905
        Accuracy : 0.886
        Accuracy : 0.890125
        Accuracy : 0.875
        Accuracy : 0.806875
        Accuracy : 0.898375
        Accuracy : 0.854375
        Accuracy : 0.885375
        Accuracy : 0.9025
        Accuracy : 0.901125
        Accuracy : 0.89225
        Accuracy : 0.888
        Accuracy : 0.904125

    Ending:
        Accuracy : 0.904125
        CPU prediction time 0.011296151842389787 63
        inference time: 0:00:09.109909

    Architecture:
      (module): AlexNetModel(
    (features): Sequential(
      (0): Sequential(
        (0): Conv2d(3, 2, kernel_size=(1, 1), stride=(1, 1), bias=False)
        (1): Conv2d(2, 30, kernel_size=(11, 11), stride=(4, 4), padding=(2, 2), bias=False)
        (2): Conv2d(30, 64, kernel_size=(1, 1), stride=(1, 1))
      )
      (1): ReLU(inplace=True)
      (2): MaxPool2d(kernel_size=3, stride=2, padding=0, dilation=1, ceil_mode=False)
      (3): Sequential(
        (0): Conv2d(64, 50, kernel_size=(1, 1), stride=(1, 1), bias=False)
        (1): Conv2d(50, 71, kernel_size=(5, 5), stride=(1, 1), padding=(2, 2), bias=False)
        (2): Conv2d(71, 192, kernel_size=(1, 1), stride=(1, 1))
      )
      (4): ReLU(inplace=True)
      (5): MaxPool2d(kernel_size=3, stride=2, padding=0, dilation=1, ceil_mode=False)
      (6): Sequential(
        (0): Conv2d(192, 75, kernel_size=(1, 1), stride=(1, 1), bias=False)
        (1): Conv2d(75, 80, kernel_size=(3, 3), stride=(1, 1), padding=(1, 1), bias=False)
        (2): Conv2d(80, 384, kernel_size=(1, 1), stride=(1, 1))
      )
      (7): ReLU(inplace=True)
      (8): Sequential(
        (0): Conv2d(384, 66, kernel_size=(1, 1), stride=(1, 1), bias=False)
        (1): Conv2d(66, 56, kernel_size=(3, 3), stride=(1, 1), padding=(1, 1), bias=False)
        (2): Conv2d(56, 256, kernel_size=(1, 1), stride=(1, 1))
      )
      (9): ReLU(inplace=True)
      (10): Sequential(
        (0): Conv2d(256, 66, kernel_size=(1, 1), stride=(1, 1), bias=False)
        (1): Conv2d(66, 70, kernel_size=(3, 3), stride=(1, 1), padding=(1, 1), bias=False)
        (2): Conv2d(70, 256, kernel_size=(1, 1), stride=(1, 1))
      )
      (11): ReLU(inplace=True)
      (12): MaxPool2d(kernel_size=3, stride=2, padding=0, dilation=1, ceil_mode=False)
    )
    (avgpool): AdaptiveAvgPool2d(output_size=(6, 6))
    (classifier): Sequential(
      (0): Dropout(p=0.5, inplace=False)
      (1): Linear(in_features=9216, out_features=4096, bias=True)
      (2): ReLU(inplace=True)
      (3): Dropout(p=0.5, inplace=False)
      (4): Linear(in_features=4096, out_features=4096, bias=True)
      (5): ReLU(inplace=True)
      (6): Linear(in_features=4096, out_features=2, bias=True)
    )
  )
)

    Parameters:
         module name  input shape output shape      params memory(MB)           MAdd          Flops   MemRead(B)  MemWrite(B) duration[%]    MemR+W(B)
0       features.0.0    3 224 224    2 224 224         6.0       0.38      501,760.0      301,056.0     602136.0     401408.0       2.12%    1003544.0
1       features.0.1    2 224 224   30  55  55      7260.0       0.35   43,832,250.0   21,961,500.0     430448.0     363000.0      25.23%     793448.0
…
======================================================================================================================================================
Total params: 54,906,718
------------------------------------------------------------------------------------------------------------------------------------------------------
Total memory: 5.52MB
Total MAdd: 403.97MMAdd
Total Flops: 202.92MFlops
Total MemR+W: 220.89MB




###### ResNet50 ######

training (pretrained):
    Accuracy : 0.978825
    CPU prediction time 0.2561067437368726 63
    inference time: 0:00:22.969309

    Architecture:
    ModifiedResNet50Model(
  (conv1): Conv2d(3, 64, kernel_size=(7, 7), stride=(2, 2), padding=(3, 3), bias=False)
  (bn1): BatchNorm2d(64, eps=1e-05, momentum=0.1, affine=True, track_running_stats=True)
  (relu): ReLU(inplace=True)
  (maxpool): MaxPool2d(kernel_size=3, stride=2, padding=1, dilation=1, ceil_mode=False)
  (layer1): Sequential(
    (0): Bottleneck(
      (conv1): Conv2d(64, 64, kernel_size=(1, 1), stride=(1, 1), bias=False)
      (bn1): BatchNorm2d(64, eps=1e-05, momentum=0.1, affine=True, track_running_stats=True)
      (conv2): Conv2d(64, 64, kernel_size=(3, 3), stride=(1, 1), padding=(1, 1), bias=False)
      (bn2): BatchNorm2d(64, eps=1e-05, momentum=0.1, affine=True, track_running_stats=True)
      (conv3): Conv2d(64, 256, kernel_size=(1, 1), stride=(1, 1), bias=False)
      (bn3): BatchNorm2d(256, eps=1e-05, momentum=0.1, affine=True, track_running_stats=True)
      (relu): ReLU(inplace=True)
      (downsample): Sequential(
        (0): Conv2d(64, 256, kernel_size=(1, 1), stride=(1, 1), bias=False)
        (1): BatchNorm2d(256, eps=1e-05, momentum=0.1, affine=True, track_running_stats=True)
      )
    )
    (1): Bottleneck(
      (conv1): Conv2d(256, 64, kernel_size=(1, 1), stride=(1, 1), bias=False)
      (bn1): BatchNorm2d(64, eps=1e-05, momentum=0.1, affine=True, track_running_stats=True)
      (conv2): Conv2d(64, 64, kernel_size=(3, 3), stride=(1, 1), padding=(1, 1), bias=False)
      (bn2): BatchNorm2d(64, eps=1e-05, momentum=0.1, affine=True, track_running_stats=True)
      (conv3): Conv2d(64, 256, kernel_size=(1, 1), stride=(1, 1), bias=False)
      (bn3): BatchNorm2d(256, eps=1e-05, momentum=0.1, affine=True, track_running_stats=True)
      (relu): ReLU(inplace=True)
    )
    (2): Bottleneck(
      (conv1): Conv2d(256, 64, kernel_size=(1, 1), stride=(1, 1), bias=False)
      (bn1): BatchNorm2d(64, eps=1e-05, momentum=0.1, affine=True, track_running_stats=True)
      (conv2): Conv2d(64, 64, kernel_size=(3, 3), stride=(1, 1), padding=(1, 1), bias=False)
      (bn2): BatchNorm2d(64, eps=1e-05, momentum=0.1, affine=True, track_running_stats=True)
      (conv3): Conv2d(64, 256, kernel_size=(1, 1), stride=(1, 1), bias=False)
      (bn3): BatchNorm2d(256, eps=1e-05, momentum=0.1, affine=True, track_running_stats=True)
      (relu): ReLU(inplace=True)
    )
  )
  (layer2): Sequential(
    (0): Bottleneck(
      (conv1): Conv2d(256, 128, kernel_size=(1, 1), stride=(1, 1), bias=False)
      (bn1): BatchNorm2d(128, eps=1e-05, momentum=0.1, affine=True, track_running_stats=True)
      (conv2): Conv2d(128, 128, kernel_size=(3, 3), stride=(2, 2), padding=(1, 1), bias=False)
      (bn2): BatchNorm2d(128, eps=1e-05, momentum=0.1, affine=True, track_running_stats=True)
      (conv3): Conv2d(128, 512, kernel_size=(1, 1), stride=(1, 1), bias=False)
      (bn3): BatchNorm2d(512, eps=1e-05, momentum=0.1, affine=True, track_running_stats=True)
      (relu): ReLU(inplace=True)
      (downsample): Sequential(
        (0): Conv2d(256, 512, kernel_size=(1, 1), stride=(2, 2), bias=False)
        (1): BatchNorm2d(512, eps=1e-05, momentum=0.1, affine=True, track_running_stats=True)
      )
    )
    (1): Bottleneck(
      (conv1): Conv2d(512, 128, kernel_size=(1, 1), stride=(1, 1), bias=False)
      (bn1): BatchNorm2d(128, eps=1e-05, momentum=0.1, affine=True, track_running_stats=True)
      (conv2): Conv2d(128, 128, kernel_size=(3, 3), stride=(1, 1), padding=(1, 1), bias=False)
      (bn2): BatchNorm2d(128, eps=1e-05, momentum=0.1, affine=True, track_running_stats=True)
      (conv3): Conv2d(128, 512, kernel_size=(1, 1), stride=(1, 1), bias=False)
      (bn3): BatchNorm2d(512, eps=1e-05, momentum=0.1, affine=True, track_running_stats=True)
      (relu): ReLU(inplace=True)
    )
    (2): Bottleneck(
      (conv1): Conv2d(512, 128, kernel_size=(1, 1), stride=(1, 1), bias=False)
      (bn1): BatchNorm2d(128, eps=1e-05, momentum=0.1, affine=True, track_running_stats=True)
      (conv2): Conv2d(128, 128, kernel_size=(3, 3), stride=(1, 1), padding=(1, 1), bias=False)
      (bn2): BatchNorm2d(128, eps=1e-05, momentum=0.1, affine=True, track_running_stats=True)
      (conv3): Conv2d(128, 512, kernel_size=(1, 1), stride=(1, 1), bias=False)
      (bn3): BatchNorm2d(512, eps=1e-05, momentum=0.1, affine=True, track_running_stats=True)
      (relu): ReLU(inplace=True)
    )
    (3): Bottleneck(
      (conv1): Conv2d(512, 128, kernel_size=(1, 1), stride=(1, 1), bias=False)
      (bn1): BatchNorm2d(128, eps=1e-05, momentum=0.1, affine=True, track_running_stats=True)
      (conv2): Conv2d(128, 128, kernel_size=(3, 3), stride=(1, 1), padding=(1, 1), bias=False)
      (bn2): BatchNorm2d(128, eps=1e-05, momentum=0.1, affine=True, track_running_stats=True)
      (conv3): Conv2d(128, 512, kernel_size=(1, 1), stride=(1, 1), bias=False)
      (bn3): BatchNorm2d(512, eps=1e-05, momentum=0.1, affine=True, track_running_stats=True)
      (relu): ReLU(inplace=True)
    )
  )
  (layer3): Sequential(
    (0): Bottleneck(
      (conv1): Conv2d(512, 256, kernel_size=(1, 1), stride=(1, 1), bias=False)
      (bn1): BatchNorm2d(256, eps=1e-05, momentum=0.1, affine=True, track_running_stats=True)
      (conv2): Conv2d(256, 256, kernel_size=(3, 3), stride=(2, 2), padding=(1, 1), bias=False)
      (bn2): BatchNorm2d(256, eps=1e-05, momentum=0.1, affine=True, track_running_stats=True)
      (conv3): Conv2d(256, 1024, kernel_size=(1, 1), stride=(1, 1), bias=False)
      (bn3): BatchNorm2d(1024, eps=1e-05, momentum=0.1, affine=True, track_running_stats=True)
      (relu): ReLU(inplace=True)
      (downsample): Sequential(
        (0): Conv2d(512, 1024, kernel_size=(1, 1), stride=(2, 2), bias=False)
        (1): BatchNorm2d(1024, eps=1e-05, momentum=0.1, affine=True, track_running_stats=True)
      )
    )
    (1): Bottleneck(
      (conv1): Conv2d(1024, 256, kernel_size=(1, 1), stride=(1, 1), bias=False)
      (bn1): BatchNorm2d(256, eps=1e-05, momentum=0.1, affine=True, track_running_stats=True)
      (conv2): Conv2d(256, 256, kernel_size=(3, 3), stride=(1, 1), padding=(1, 1), bias=False)
      (bn2): BatchNorm2d(256, eps=1e-05, momentum=0.1, affine=True, track_running_stats=True)
      (conv3): Conv2d(256, 1024, kernel_size=(1, 1), stride=(1, 1), bias=False)
      (bn3): BatchNorm2d(1024, eps=1e-05, momentum=0.1, affine=True, track_running_stats=True)
      (relu): ReLU(inplace=True)
    )
    (2): Bottleneck(
      (conv1): Conv2d(1024, 256, kernel_size=(1, 1), stride=(1, 1), bias=False)
      (bn1): BatchNorm2d(256, eps=1e-05, momentum=0.1, affine=True, track_running_stats=True)
      (conv2): Conv2d(256, 256, kernel_size=(3, 3), stride=(1, 1), padding=(1, 1), bias=False)
      (bn2): BatchNorm2d(256, eps=1e-05, momentum=0.1, affine=True, track_running_stats=True)
      (conv3): Conv2d(256, 1024, kernel_size=(1, 1), stride=(1, 1), bias=False)
      (bn3): BatchNorm2d(1024, eps=1e-05, momentum=0.1, affine=True, track_running_stats=True)
      (relu): ReLU(inplace=True)
    )
    (3): Bottleneck(
      (conv1): Conv2d(1024, 256, kernel_size=(1, 1), stride=(1, 1), bias=False)
      (bn1): BatchNorm2d(256, eps=1e-05, momentum=0.1, affine=True, track_running_stats=True)
      (conv2): Conv2d(256, 256, kernel_size=(3, 3), stride=(1, 1), padding=(1, 1), bias=False)
      (bn2): BatchNorm2d(256, eps=1e-05, momentum=0.1, affine=True, track_running_stats=True)
      (conv3): Conv2d(256, 1024, kernel_size=(1, 1), stride=(1, 1), bias=False)
      (bn3): BatchNorm2d(1024, eps=1e-05, momentum=0.1, affine=True, track_running_stats=True)
      (relu): ReLU(inplace=True)
    )
    (4): Bottleneck(
      (conv1): Conv2d(1024, 256, kernel_size=(1, 1), stride=(1, 1), bias=False)
      (bn1): BatchNorm2d(256, eps=1e-05, momentum=0.1, affine=True, track_running_stats=True)
      (conv2): Conv2d(256, 256, kernel_size=(3, 3), stride=(1, 1), padding=(1, 1), bias=False)
      (bn2): BatchNorm2d(256, eps=1e-05, momentum=0.1, affine=True, track_running_stats=True)
      (conv3): Conv2d(256, 1024, kernel_size=(1, 1), stride=(1, 1), bias=False)
      (bn3): BatchNorm2d(1024, eps=1e-05, momentum=0.1, affine=True, track_running_stats=True)
      (relu): ReLU(inplace=True)
    )
    (5): Bottleneck(
      (conv1): Conv2d(1024, 256, kernel_size=(1, 1), stride=(1, 1), bias=False)
      (bn1): BatchNorm2d(256, eps=1e-05, momentum=0.1, affine=True, track_running_stats=True)
      (conv2): Conv2d(256, 256, kernel_size=(3, 3), stride=(1, 1), padding=(1, 1), bias=False)
      (bn2): BatchNorm2d(256, eps=1e-05, momentum=0.1, affine=True, track_running_stats=True)
      (conv3): Conv2d(256, 1024, kernel_size=(1, 1), stride=(1, 1), bias=False)
      (bn3): BatchNorm2d(1024, eps=1e-05, momentum=0.1, affine=True, track_running_stats=True)
      (relu): ReLU(inplace=True)
    )
  )
  (layer4): Sequential(
    (0): Bottleneck(
      (conv1): Conv2d(1024, 512, kernel_size=(1, 1), stride=(1, 1), bias=False)
      (bn1): BatchNorm2d(512, eps=1e-05, momentum=0.1, affine=True, track_running_stats=True)
      (conv2): Conv2d(512, 512, kernel_size=(3, 3), stride=(2, 2), padding=(1, 1), bias=False)
      (bn2): BatchNorm2d(512, eps=1e-05, momentum=0.1, affine=True, track_running_stats=True)
      (conv3): Conv2d(512, 2048, kernel_size=(1, 1), stride=(1, 1), bias=False)
      (bn3): BatchNorm2d(2048, eps=1e-05, momentum=0.1, affine=True, track_running_stats=True)
      (relu): ReLU(inplace=True)
      (downsample): Sequential(
        (0): Conv2d(1024, 2048, kernel_size=(1, 1), stride=(2, 2), bias=False)
        (1): BatchNorm2d(2048, eps=1e-05, momentum=0.1, affine=True, track_running_stats=True)
      )
    )
    (1): Bottleneck(
      (conv1): Conv2d(2048, 512, kernel_size=(1, 1), stride=(1, 1), bias=False)
      (bn1): BatchNorm2d(512, eps=1e-05, momentum=0.1, affine=True, track_running_stats=True)
      (conv2): Conv2d(512, 512, kernel_size=(3, 3), stride=(1, 1), padding=(1, 1), bias=False)
      (bn2): BatchNorm2d(512, eps=1e-05, momentum=0.1, affine=True, track_running_stats=True)
      (conv3): Conv2d(512, 2048, kernel_size=(1, 1), stride=(1, 1), bias=False)
      (bn3): BatchNorm2d(2048, eps=1e-05, momentum=0.1, affine=True, track_running_stats=True)
      (relu): ReLU(inplace=True)
    )
    (2): Bottleneck(
      (conv1): Conv2d(2048, 512, kernel_size=(1, 1), stride=(1, 1), bias=False)
      (bn1): BatchNorm2d(512, eps=1e-05, momentum=0.1, affine=True, track_running_stats=True)
      (conv2): Conv2d(512, 512, kernel_size=(3, 3), stride=(1, 1), padding=(1, 1), bias=False)
      (bn2): BatchNorm2d(512, eps=1e-05, momentum=0.1, affine=True, track_running_stats=True)
      (conv3): Conv2d(512, 2048, kernel_size=(1, 1), stride=(1, 1), bias=False)
      (bn3): BatchNorm2d(2048, eps=1e-05, momentum=0.1, affine=True, track_running_stats=True)
      (relu): ReLU(inplace=True)
    )
  )
  (avgpool): AdaptiveAvgPool2d(output_size=(1, 1))
  (classifier): Sequential(
    (0): Linear(in_features=2048, out_features=256, bias=True)
    (1): ReLU(inplace=True)
    (2): Dropout(p=0.4, inplace=False)
    (3): Linear(in_features=256, out_features=2, bias=True)
    (4): LogSoftmax(dim=1)
  )
)

    Parameters:
                 module name   input shape  output shape      params memory(MB)             MAdd            Flops  MemRead(B)  MemWrite(B) duration[%]    MemR+W(B)
0                      conv1     3 224 224    64 112 112      9408.0       3.06    235,225,088.0    118,013,952.0    639744.0    3211264.0       9.78%    3851008.0
…
Total params: 24,033,090
-------------------------------------------------------------------------------------------------------------------------------------------------------------------
Total memory: 109.69MB
Total MAdd: 8.22GMAdd
Total Flops: 4.12GFlops
Total MemR+W: 311.62MB


Fine_tune:
    Begining:
      Accuracy : 0.690875
      CPU prediction time 0.11980986973595997 63
      inference time: 0:00:11.874672

    Ending:
    Accuracy : 0.974375
    CPU prediction time 0.09621595579480367 63
    inference time: 0:00:11.482893


    Architecture:
  (module): ModifiedResNet50Model(
    (conv1): Conv2d(3, 64, kernel_size=(7, 7), stride=(2, 2), padding=(3, 3), bias=False)
    (bn1): BatchNorm2d(64, eps=1e-05, momentum=0.1, affine=True, track_running_stats=True)
    (relu): ReLU(inplace=True)
    (maxpool): MaxPool2d(kernel_size=3, stride=2, padding=1, dilation=1, ceil_mode=False)
    (layer1): Sequential(
      (0): Bottleneck(
        (conv1): Conv2d(64, 64, kernel_size=(1, 1), stride=(1, 1), bias=False)
        (bn1): BatchNorm2d(64, eps=1e-05, momentum=0.1, affine=True, track_running_stats=True)
        (conv2): Sequential(
          (0): Conv2d(64, 38, kernel_size=(1, 1), stride=(1, 1), bias=False)
          (1): Conv2d(38, 38, kernel_size=(3, 3), stride=(1, 1), padding=(1, 1), bias=False)
          (2): Conv2d(38, 64, kernel_size=(1, 1), stride=(1, 1))
        )
        (bn2): BatchNorm2d(64, eps=1e-05, momentum=0.1, affine=True, track_running_stats=True)
        (conv3): Conv2d(64, 256, kernel_size=(1, 1), stride=(1, 1), bias=False)
        (bn3): BatchNorm2d(256, eps=1e-05, momentum=0.1, affine=True, track_running_stats=True)
        (relu): ReLU(inplace=True)
        (downsample): Sequential(
          (0): Conv2d(64, 256, kernel_size=(1, 1), stride=(1, 1), bias=False)
          (1): BatchNorm2d(256, eps=1e-05, momentum=0.1, affine=True, track_running_stats=True)
        )
      )
      (1): Bottleneck(
        (conv1): Conv2d(256, 64, kernel_size=(1, 1), stride=(1, 1), bias=False)
        (bn1): BatchNorm2d(64, eps=1e-05, momentum=0.1, affine=True, track_running_stats=True)
        (conv2): Sequential(
          (0): Conv2d(64, 30, kernel_size=(1, 1), stride=(1, 1), bias=False)
          (1): Conv2d(30, 25, kernel_size=(3, 3), stride=(1, 1), padding=(1, 1), bias=False)
          (2): Conv2d(25, 64, kernel_size=(1, 1), stride=(1, 1))
        )
        (bn2): BatchNorm2d(64, eps=1e-05, momentum=0.1, affine=True, track_running_stats=True)
        (conv3): Conv2d(64, 256, kernel_size=(1, 1), stride=(1, 1), bias=False)
        (bn3): BatchNorm2d(256, eps=1e-05, momentum=0.1, affine=True, track_running_stats=True)
        (relu): ReLU(inplace=True)
      )
      (2): Bottleneck(
        (conv1): Conv2d(256, 64, kernel_size=(1, 1), stride=(1, 1), bias=False)
        (bn1): BatchNorm2d(64, eps=1e-05, momentum=0.1, affine=True, track_running_stats=True)
        (conv2): Sequential(
          (0): Conv2d(64, 23, kernel_size=(1, 1), stride=(1, 1), bias=False)
          (1): Conv2d(23, 24, kernel_size=(3, 3), stride=(1, 1), padding=(1, 1), bias=False)
          (2): Conv2d(24, 64, kernel_size=(1, 1), stride=(1, 1))
        )
        (bn2): BatchNorm2d(64, eps=1e-05, momentum=0.1, affine=True, track_running_stats=True)
        (conv3): Conv2d(64, 256, kernel_size=(1, 1), stride=(1, 1), bias=False)
        (bn3): BatchNorm2d(256, eps=1e-05, momentum=0.1, affine=True, track_running_stats=True)
        (relu): ReLU(inplace=True)
      )
    )
    (layer2): Sequential(
      (0): Bottleneck(
        (conv1): Conv2d(256, 128, kernel_size=(1, 1), stride=(1, 1), bias=False)
        (bn1): BatchNorm2d(128, eps=1e-05, momentum=0.1, affine=True, track_running_stats=True)
        (conv2): Sequential(
          (0): Conv2d(128, 50, kernel_size=(1, 1), stride=(1, 1), bias=False)
          (1): Conv2d(50, 53, kernel_size=(3, 3), stride=(2, 2), padding=(1, 1), bias=False)
          (2): Conv2d(53, 128, kernel_size=(1, 1), stride=(1, 1))
        )
        (bn2): BatchNorm2d(128, eps=1e-05, momentum=0.1, affine=True, track_running_stats=True)
        (conv3): Conv2d(128, 512, kernel_size=(1, 1), stride=(1, 1), bias=False)
        (bn3): BatchNorm2d(512, eps=1e-05, momentum=0.1, affine=True, track_running_stats=True)
        (relu): ReLU(inplace=True)
        (downsample): Sequential(
          (0): Conv2d(256, 512, kernel_size=(1, 1), stride=(2, 2), bias=False)
          (1): BatchNorm2d(512, eps=1e-05, momentum=0.1, affine=True, track_running_stats=True)
        )
      )
      (1): Bottleneck(
        (conv1): Conv2d(512, 128, kernel_size=(1, 1), stride=(1, 1), bias=False)
        (bn1): BatchNorm2d(128, eps=1e-05, momentum=0.1, affine=True, track_running_stats=True)
        (conv2): Sequential(
          (0): Conv2d(128, 72, kernel_size=(1, 1), stride=(1, 1), bias=False)
          (1): Conv2d(72, 65, kernel_size=(3, 3), stride=(1, 1), padding=(1, 1), bias=False)
          (2): Conv2d(65, 128, kernel_size=(1, 1), stride=(1, 1))
        )
        (bn2): BatchNorm2d(128, eps=1e-05, momentum=0.1, affine=True, track_running_stats=True)
        (conv3): Conv2d(128, 512, kernel_size=(1, 1), stride=(1, 1), bias=False)
        (bn3): BatchNorm2d(512, eps=1e-05, momentum=0.1, affine=True, track_running_stats=True)
        (relu): ReLU(inplace=True)
      )
      (2): Bottleneck(
        (conv1): Conv2d(512, 128, kernel_size=(1, 1), stride=(1, 1), bias=False)
        (bn1): BatchNorm2d(128, eps=1e-05, momentum=0.1, affine=True, track_running_stats=True)
        (conv2): Sequential(
          (0): Conv2d(128, 55, kernel_size=(1, 1), stride=(1, 1), bias=False)
          (1): Conv2d(55, 52, kernel_size=(3, 3), stride=(1, 1), padding=(1, 1), bias=False)
          (2): Conv2d(52, 128, kernel_size=(1, 1), stride=(1, 1))
        )
        (bn2): BatchNorm2d(128, eps=1e-05, momentum=0.1, affine=True, track_running_stats=True)
        (conv3): Conv2d(128, 512, kernel_size=(1, 1), stride=(1, 1), bias=False)
        (bn3): BatchNorm2d(512, eps=1e-05, momentum=0.1, affine=True, track_running_stats=True)
        (relu): ReLU(inplace=True)
      )
      (3): Bottleneck(
        (conv1): Conv2d(512, 128, kernel_size=(1, 1), stride=(1, 1), bias=False)
        (bn1): BatchNorm2d(128, eps=1e-05, momentum=0.1, affine=True, track_running_stats=True)
        (conv2): Sequential(
          (0): Conv2d(128, 46, kernel_size=(1, 1), stride=(1, 1), bias=False)
          (1): Conv2d(46, 42, kernel_size=(3, 3), stride=(1, 1), padding=(1, 1), bias=False)
          (2): Conv2d(42, 128, kernel_size=(1, 1), stride=(1, 1))
        )
        (bn2): BatchNorm2d(128, eps=1e-05, momentum=0.1, affine=True, track_running_stats=True)
        (conv3): Conv2d(128, 512, kernel_size=(1, 1), stride=(1, 1), bias=False)
        (bn3): BatchNorm2d(512, eps=1e-05, momentum=0.1, affine=True, track_running_stats=True)
        (relu): ReLU(inplace=True)
      )
    )
    (layer3): Sequential(
      (0): Bottleneck(
        (conv1): Conv2d(512, 256, kernel_size=(1, 1), stride=(1, 1), bias=False)
        (bn1): BatchNorm2d(256, eps=1e-05, momentum=0.1, affine=True, track_running_stats=True)
        (conv2): Sequential(
          (0): Conv2d(256, 106, kernel_size=(1, 1), stride=(1, 1), bias=False)
          (1): Conv2d(106, 107, kernel_size=(3, 3), stride=(2, 2), padding=(1, 1), bias=False)
          (2): Conv2d(107, 256, kernel_size=(1, 1), stride=(1, 1))
        )
        (bn2): BatchNorm2d(256, eps=1e-05, momentum=0.1, affine=True, track_running_stats=True)
        (conv3): Conv2d(256, 1024, kernel_size=(1, 1), stride=(1, 1), bias=False)
        (bn3): BatchNorm2d(1024, eps=1e-05, momentum=0.1, affine=True, track_running_stats=True)
        (relu): ReLU(inplace=True)
        (downsample): Sequential(
          (0): Conv2d(512, 1024, kernel_size=(1, 1), stride=(2, 2), bias=False)
          (1): BatchNorm2d(1024, eps=1e-05, momentum=0.1, affine=True, track_running_stats=True)
        )
      )
      (1): Bottleneck(
        (conv1): Conv2d(1024, 256, kernel_size=(1, 1), stride=(1, 1), bias=False)
        (bn1): BatchNorm2d(256, eps=1e-05, momentum=0.1, affine=True, track_running_stats=True)
        (conv2): Sequential(
          (0): Conv2d(256, 105, kernel_size=(1, 1), stride=(1, 1), bias=False)
          (1): Conv2d(105, 96, kernel_size=(3, 3), stride=(1, 1), padding=(1, 1), bias=False)
          (2): Conv2d(96, 256, kernel_size=(1, 1), stride=(1, 1))
        )
        (bn2): BatchNorm2d(256, eps=1e-05, momentum=0.1, affine=True, track_running_stats=True)
        (conv3): Conv2d(256, 1024, kernel_size=(1, 1), stride=(1, 1), bias=False)
        (bn3): BatchNorm2d(1024, eps=1e-05, momentum=0.1, affine=True, track_running_stats=True)
        (relu): ReLU(inplace=True)
      )
      (2): Bottleneck(
        (conv1): Conv2d(1024, 256, kernel_size=(1, 1), stride=(1, 1), bias=False)
        (bn1): BatchNorm2d(256, eps=1e-05, momentum=0.1, affine=True, track_running_stats=True)
        (conv2): Sequential(
          (0): Conv2d(256, 99, kernel_size=(1, 1), stride=(1, 1), bias=False)
          (1): Conv2d(99, 90, kernel_size=(3, 3), stride=(1, 1), padding=(1, 1), bias=False)
          (2): Conv2d(90, 256, kernel_size=(1, 1), stride=(1, 1))
        )
        (bn2): BatchNorm2d(256, eps=1e-05, momentum=0.1, affine=True, track_running_stats=True)
        (conv3): Conv2d(256, 1024, kernel_size=(1, 1), stride=(1, 1), bias=False)
        (bn3): BatchNorm2d(1024, eps=1e-05, momentum=0.1, affine=True, track_running_stats=True)
        (relu): ReLU(inplace=True)
      )
      (3): Bottleneck(
        (conv1): Conv2d(1024, 256, kernel_size=(1, 1), stride=(1, 1), bias=False)
        (bn1): BatchNorm2d(256, eps=1e-05, momentum=0.1, affine=True, track_running_stats=True)
        (conv2): Sequential(
          (0): Conv2d(256, 84, kernel_size=(1, 1), stride=(1, 1), bias=False)
          (1): Conv2d(84, 79, kernel_size=(3, 3), stride=(1, 1), padding=(1, 1), bias=False)
          (2): Conv2d(79, 256, kernel_size=(1, 1), stride=(1, 1))
        )
        (bn2): BatchNorm2d(256, eps=1e-05, momentum=0.1, affine=True, track_running_stats=True)
        (conv3): Conv2d(256, 1024, kernel_size=(1, 1), stride=(1, 1), bias=False)
        (bn3): BatchNorm2d(1024, eps=1e-05, momentum=0.1, affine=True, track_running_stats=True)
        (relu): ReLU(inplace=True)
      )
      (4): Bottleneck(
        (conv1): Conv2d(1024, 256, kernel_size=(1, 1), stride=(1, 1), bias=False)
        (bn1): BatchNorm2d(256, eps=1e-05, momentum=0.1, affine=True, track_running_stats=True)
        (conv2): Sequential(
          (0): Conv2d(256, 78, kernel_size=(1, 1), stride=(1, 1), bias=False)
          (1): Conv2d(78, 74, kernel_size=(3, 3), stride=(1, 1), padding=(1, 1), bias=False)
          (2): Conv2d(74, 256, kernel_size=(1, 1), stride=(1, 1))
        )
        (bn2): BatchNorm2d(256, eps=1e-05, momentum=0.1, affine=True, track_running_stats=True)
        (conv3): Conv2d(256, 1024, kernel_size=(1, 1), stride=(1, 1), bias=False)
        (bn3): BatchNorm2d(1024, eps=1e-05, momentum=0.1, affine=True, track_running_stats=True)
        (relu): ReLU(inplace=True)
      )
      (5): Bottleneck(
        (conv1): Conv2d(1024, 256, kernel_size=(1, 1), stride=(1, 1), bias=False)
        (bn1): BatchNorm2d(256, eps=1e-05, momentum=0.1, affine=True, track_running_stats=True)
        (conv2): Sequential(
          (0): Conv2d(256, 80, kernel_size=(1, 1), stride=(1, 1), bias=False)
          (1): Conv2d(80, 74, kernel_size=(3, 3), stride=(1, 1), padding=(1, 1), bias=False)
          (2): Conv2d(74, 256, kernel_size=(1, 1), stride=(1, 1))
        )
        (bn2): BatchNorm2d(256, eps=1e-05, momentum=0.1, affine=True, track_running_stats=True)
        (conv3): Conv2d(256, 1024, kernel_size=(1, 1), stride=(1, 1), bias=False)
        (bn3): BatchNorm2d(1024, eps=1e-05, momentum=0.1, affine=True, track_running_stats=True)
        (relu): ReLU(inplace=True)
      )
    )
    (layer4): Sequential(
      (0): Bottleneck(
        (conv1): Conv2d(1024, 512, kernel_size=(1, 1), stride=(1, 1), bias=False)
        (bn1): BatchNorm2d(512, eps=1e-05, momentum=0.1, affine=True, track_running_stats=True)
        (conv2): Sequential(
          (0): Conv2d(512, 202, kernel_size=(1, 1), stride=(1, 1), bias=False)
          (1): Conv2d(202, 193, kernel_size=(3, 3), stride=(2, 2), padding=(1, 1), bias=False)
          (2): Conv2d(193, 512, kernel_size=(1, 1), stride=(1, 1))
        )
        (bn2): BatchNorm2d(512, eps=1e-05, momentum=0.1, affine=True, track_running_stats=True)
        (conv3): Conv2d(512, 2048, kernel_size=(1, 1), stride=(1, 1), bias=False)
        (bn3): BatchNorm2d(2048, eps=1e-05, momentum=0.1, affine=True, track_running_stats=True)
        (relu): ReLU(inplace=True)
        (downsample): Sequential(
          (0): Conv2d(1024, 2048, kernel_size=(1, 1), stride=(2, 2), bias=False)
          (1): BatchNorm2d(2048, eps=1e-05, momentum=0.1, affine=True, track_running_stats=True)
        )
      )
      (1): Bottleneck(
        (conv1): Conv2d(2048, 512, kernel_size=(1, 1), stride=(1, 1), bias=False)
        (bn1): BatchNorm2d(512, eps=1e-05, momentum=0.1, affine=True, track_running_stats=True)
        (conv2): Sequential(
          (0): Conv2d(512, 187, kernel_size=(1, 1), stride=(1, 1), bias=False)
          (1): Conv2d(187, 152, kernel_size=(3, 3), stride=(1, 1), padding=(1, 1), bias=False)
          (2): Conv2d(152, 512, kernel_size=(1, 1), stride=(1, 1))
        )
        (bn2): BatchNorm2d(512, eps=1e-05, momentum=0.1, affine=True, track_running_stats=True)
        (conv3): Conv2d(512, 2048, kernel_size=(1, 1), stride=(1, 1), bias=False)
        (bn3): BatchNorm2d(2048, eps=1e-05, momentum=0.1, affine=True, track_running_stats=True)
        (relu): ReLU(inplace=True)
      )
      (2): Bottleneck(
        (conv1): Conv2d(2048, 512, kernel_size=(1, 1), stride=(1, 1), bias=False)
        (bn1): BatchNorm2d(512, eps=1e-05, momentum=0.1, affine=True, track_running_stats=True)
        (conv2): Sequential(
          (0): Conv2d(512, 268, kernel_size=(1, 1), stride=(1, 1), bias=False)
          (1): Conv2d(268, 252, kernel_size=(3, 3), stride=(1, 1), padding=(1, 1), bias=False)
          (2): Conv2d(252, 512, kernel_size=(1, 1), stride=(1, 1))
        )
        (bn2): BatchNorm2d(512, eps=1e-05, momentum=0.1, affine=True, track_running_stats=True)
        (conv3): Conv2d(512, 2048, kernel_size=(1, 1), stride=(1, 1), bias=False)
        (bn3): BatchNorm2d(2048, eps=1e-05, momentum=0.1, affine=True, track_running_stats=True)
        (relu): ReLU(inplace=True)
      )
    )
    (avgpool): AdaptiveAvgPool2d(output_size=(1, 1))
    (classifier): Sequential(
      (0): Linear(in_features=2048, out_features=256, bias=True)
      (1): ReLU(inplace=True)
      (2): Dropout(p=0.4, inplace=False)
      (3): Linear(in_features=256, out_features=2, bias=True)
      (4): LogSoftmax(dim=1)
    )
  )
)
  Parameters:
                 module name   input shape  output shape      params memory(MB)             MAdd            Flops  MemRead(B)  MemWrite(B) duration[%]    MemR+W(B)
0                      conv1     3 224 224    64 112 112      9408.0       3.06    235,225,088.0    118,013,952.0    639744.0    3211264.0       1.68%    3851008.0
…
